…
2018-05-25 13:20:19.300601: I tensorflow/core/common_runtime/gpu/gpu_device.cc:1053] Created TensorFlow device (/job:localhost/replica:0/task:0/device:GPU:0 with 14790 MB memory) -> physical GPU (device: 0, name: Tesla V100-SXM2-16GB, pci bus id: 0000:00:04.0, compute capability: 7.0)
Start training
__________________________________________________________________________________________________
Layer (type)                    Output Shape         Param #     Connected to                     
==================================================================================================
input_1 (InputLayer)            (None, 512, 512, 3)  0                                            
__________________________________________________________________________________________________
conv1_pad (ZeroPadding2D)       (None, 518, 518, 3)  0           input_1[0][0]                    
__________________________________________________________________________________________________
conv1 (Conv2D)                  (None, 256, 256, 64) 9472        conv1_pad[0][0]                  
__________________________________________________________________________________________________
bn_conv1 (BatchNormalization)   (None, 256, 256, 64) 256         conv1[0][0]                      
__________________________________________________________________________________________________
activation_1 (Activation)       (None, 256, 256, 64) 0           bn_conv1[0][0]                   
__________________________________________________________________________________________________
max_pooling2d_1 (MaxPooling2D)  (None, 127, 127, 64) 0           activation_1[0][0]               
__________________________________________________________________________________________________
res2a_branch2a (Conv2D)         (None, 127, 127, 64) 4160        max_pooling2d_1[0][0]            
__________________________________________________________________________________________________
bn2a_branch2a (BatchNormalizati (None, 127, 127, 64) 256         res2a_branch2a[0][0]             
__________________________________________________________________________________________________
activation_2 (Activation)       (None, 127, 127, 64) 0           bn2a_branch2a[0][0]              
__________________________________________________________________________________________________
res2a_branch2b (Conv2D)         (None, 127, 127, 64) 36928       activation_2[0][0]               
__________________________________________________________________________________________________
bn2a_branch2b (BatchNormalizati (None, 127, 127, 64) 256         res2a_branch2b[0][0]             
__________________________________________________________________________________________________
activation_3 (Activation)       (None, 127, 127, 64) 0           bn2a_branch2b[0][0]              
__________________________________________________________________________________________________
res2a_branch2c (Conv2D)         (None, 127, 127, 256 16640       activation_3[0][0]               
__________________________________________________________________________________________________
res2a_branch1 (Conv2D)          (None, 127, 127, 256 16640       max_pooling2d_1[0][0]            
…
__________________________________________________________________________________________________
add_1 (Add)                     (None, 127, 127, 256 0           bn2a_branch2c[0][0]              
                                                                 bn2a_branch1[0][0]               
__________________________________________________________________________________________________
activation_4 (Activation)       (None, 127, 127, 256 0           add_1[0][0]                      
__________________________________________________________________________________________________
res2b_branch2a (Conv2D)         (None, 127, 127, 64) 16448       activation_4[0][0]               
__________________________________________________________________________________________________
bn2b_branch2a (BatchNormalizati (None, 127, 127, 64) 256         res2b_branch2a[0][0]             
__________________________________________________________________________________________________
activation_5 (Activation)       (None, 127, 127, 64) 0           bn2b_branch2a[0][0]              
__________________________________________________________________________________________________
res2b_branch2b (Conv2D)         (None, 127, 127, 64) 36928       activation_5[0][0]               
__________________________________________________________________________________________________
bn2b_branch2b (BatchNormalizati (None, 127, 127, 64) 256         res2b_branch2b[0][0]             
__________________________________________________________________________________________________
activation_6 (Activation)       (None, 127, 127, 64) 0           bn2b_branch2b[0][0]              
__________________________________________________________________________________________________
res2b_branch2c (Conv2D)         (None, 127, 127, 256 16640       activation_6[0][0]               
__________________________________________________________________________________________________
bn2b_branch2c (BatchNormalizati (None, 127, 127, 256 1024        res2b_branch2c[0][0]             
…
__________________________________________________________________________________________________
add_3 (Add)                     (None, 127, 127, 256 0           bn2c_branch2c[0][0]              
                                                                 activation_7[0][0]               
__________________________________________________________________________________________________
activation_10 (Activation)      (None, 127, 127, 256 0           add_3[0][0]                      
__________________________________________________________________________________________________
res3a_branch2a (Conv2D)         (None, 64, 64, 128)  32896       activation_10[0][0]              
__________________________________________________________________________________________________
bn3a_branch2a (BatchNormalizati (None, 64, 64, 128)  512         res3a_branch2a[0][0]             
__________________________________________________________________________________________________
activation_11 (Activation)      (None, 64, 64, 128)  0           bn3a_branch2a[0][0]              
__________________________________________________________________________________________________
res3a_branch2b (Conv2D)         (None, 64, 64, 128)  147584      activation_11[0][0]              
__________________________________________________________________________________________________
bn3a_branch2b (BatchNormalizati (None, 64, 64, 128)  512         res3a_branch2b[0][0]             
__________________________________________________________________________________________________
activation_12 (Activation)      (None, 64, 64, 128)  0           bn3a_branch2b[0][0]              
__________________________________________________________________________________________________
res3a_branch2c (Conv2D)         (None, 64, 64, 512)  66048       activation_12[0][0]              
__________________________________________________________________________________________________
res3a_branch1 (Conv2D)          (None, 64, 64, 512)  131584      activation_10[0][0]              
__________________________________________________________________________________________________
bn3a_branch2c (BatchNormalizati (None, 64, 64, 512)  2048        res3a_branch2c[0][0]             
__________________________________________________________________________________________________
bn3a_branch1 (BatchNormalizatio (None, 64, 64, 512)  2048        res3a_branch1[0][0]              
__________________________________________________________________________________________________
add_4 (Add)                     (None, 64, 64, 512)  0           bn3a_branch2c[0][0]              
                                                                 bn3a_branch1[0][0]               
__________________________________________________________________________________________________
activation_13 (Activation)      (None, 64, 64, 512)  0           add_4[0][0]                      
__________________________________________________________________________________________________
res3b_branch2a (Conv2D)         (None, 64, 64, 128)  65664       activation_13[0][0]              
__________________________________________________________________________________________________
bn3b_branch2a (BatchNormalizati (None, 64, 64, 128)  512         res3b_branch2a[0][0]             
__________________________________________________________________________________________________
activation_14 (Activation)      (None, 64, 64, 128)  0           bn3b_branch2a[0][0]              
__________________________________________________________________________________________________
res3b_branch2b (Conv2D)         (None, 64, 64, 128)  147584      activation_14[0][0]              
__________________________________________________________________________________________________
bn3b_branch2b (BatchNormalizati (None, 64, 64, 128)  512         res3b_branch2b[0][0]             
__________________________________________________________________________________________________
activation_15 (Activation)      (None, 64, 64, 128)  0           bn3b_branch2b[0][0]              
__________________________________________________________________________________________________
res3b_branch2c (Conv2D)         (None, 64, 64, 512)  66048       activation_15[0][0]              
__________________________________________________________________________________________________
bn3b_branch2c (BatchNormalizati (None, 64, 64, 512)  2048        res3b_branch2c[0][0]             
__________________________________________________________________________________________________
add_5 (Add)                     (None, 64, 64, 512)  0           bn3b_branch2c[0][0]              
                                                                 activation_13[0][0]              
__________________________________________________________________________________________________
activation_16 (Activation)      (None, 64, 64, 512)  0           add_5[0][0]                      
__________________________________________________________________________________________________
res3c_branch2a (Conv2D)         (None, 64, 64, 128)  65664       activation_16[0][0]              
__________________________________________________________________________________________________
bn3c_branch2a (BatchNormalizati (None, 64, 64, 128)  512         res3c_branch2a[0][0]             
__________________________________________________________________________________________________
activation_17 (Activation)      (None, 64, 64, 128)  0           bn3c_branch2a[0][0]              
__________________________________________________________________________________________________
res3c_branch2b (Conv2D)         (None, 64, 64, 128)  147584      activation_17[0][0]              
__________________________________________________________________________________________________
bn3c_branch2b (BatchNormalizati (None, 64, 64, 128)  512         res3c_branch2b[0][0]             
__________________________________________________________________________________________________
activation_18 (Activation)      (None, 64, 64, 128)  0           bn3c_branch2b[0][0]              
__________________________________________________________________________________________________
res3c_branch2c (Conv2D)         (None, 64, 64, 512)  66048       activation_18[0][0]              
__________________________________________________________________________________________________
bn3c_branch2c (BatchNormalizati (None, 64, 64, 512)  2048        res3c_branch2c[0][0]             
__________________________________________________________________________________________________
add_6 (Add)                     (None, 64, 64, 512)  0           bn3c_branch2c[0][0]              
                                                                 activation_16[0][0]              
__________________________________________________________________________________________________
activation_19 (Activation)      (None, 64, 64, 512)  0           add_6[0][0]                      
__________________________________________________________________________________________________
res3d_branch2a (Conv2D)         (None, 64, 64, 128)  65664       activation_19[0][0]              
__________________________________________________________________________________________________
bn3d_branch2a (BatchNormalizati (None, 64, 64, 128)  512         res3d_branch2a[0][0]             
__________________________________________________________________________________________________
activation_20 (Activation)      (None, 64, 64, 128)  0           bn3d_branch2a[0][0]              
__________________________________________________________________________________________________
res3d_branch2b (Conv2D)         (None, 64, 64, 128)  147584      activation_20[0][0]              
__________________________________________________________________________________________________
bn3d_branch2b (BatchNormalizati (None, 64, 64, 128)  512         res3d_branch2b[0][0]             
__________________________________________________________________________________________________
activation_21 (Activation)      (None, 64, 64, 128)  0           bn3d_branch2b[0][0]              
__________________________________________________________________________________________________
res3d_branch2c (Conv2D)         (None, 64, 64, 512)  66048       activation_21[0][0]              
__________________________________________________________________________________________________
bn3d_branch2c (BatchNormalizati (None, 64, 64, 512)  2048        res3d_branch2c[0][0]             
__________________________________________________________________________________________________
add_7 (Add)                     (None, 64, 64, 512)  0           bn3d_branch2c[0][0]              
                                                                 activation_19[0][0]              
__________________________________________________________________________________________________
activation_22 (Activation)      (None, 64, 64, 512)  0           add_7[0][0]                      
__________________________________________________________________________________________________
res4a_branch2a (Conv2D)         (None, 32, 32, 256)  131328      activation_22[0][0]              
__________________________________________________________________________________________________
bn4a_branch2a (BatchNormalizati (None, 32, 32, 256)  1024        res4a_branch2a[0][0]             
__________________________________________________________________________________________________
activation_23 (Activation)      (None, 32, 32, 256)  0           bn4a_branch2a[0][0]              
__________________________________________________________________________________________________
res4a_branch2b (Conv2D)         (None, 32, 32, 256)  590080      activation_23[0][0]              
__________________________________________________________________________________________________
bn4a_branch2b (BatchNormalizati (None, 32, 32, 256)  1024        res4a_branch2b[0][0]             
__________________________________________________________________________________________________
activation_24 (Activation)      (None, 32, 32, 256)  0           bn4a_branch2b[0][0]              
__________________________________________________________________________________________________
res4a_branch2c (Conv2D)         (None, 32, 32, 1024) 263168      activation_24[0][0]              
__________________________________________________________________________________________________
res4a_branch1 (Conv2D)          (None, 32, 32, 1024) 525312      activation_22[0][0]              
__________________________________________________________________________________________________
bn4a_branch2c (BatchNormalizati (None, 32, 32, 1024) 4096        res4a_branch2c[0][0]             
__________________________________________________________________________________________________
bn4a_branch1 (BatchNormalizatio (None, 32, 32, 1024) 4096        res4a_branch1[0][0]              
__________________________________________________________________________________________________
add_8 (Add)                     (None, 32, 32, 1024) 0           bn4a_branch2c[0][0]              
                                                                 bn4a_branch1[0][0]               
__________________________________________________________________________________________________
activation_25 (Activation)      (None, 32, 32, 1024) 0           add_8[0][0]                      
__________________________________________________________________________________________________
res4b_branch2a (Conv2D)         (None, 32, 32, 256)  262400      activation_25[0][0]              
__________________________________________________________________________________________________
bn4b_branch2a (BatchNormalizati (None, 32, 32, 256)  1024        res4b_branch2a[0][0]             
__________________________________________________________________________________________________
activation_26 (Activation)      (None, 32, 32, 256)  0           bn4b_branch2a[0][0]              
__________________________________________________________________________________________________
res4b_branch2b (Conv2D)         (None, 32, 32, 256)  590080      activation_26[0][0]              
__________________________________________________________________________________________________
bn4b_branch2b (BatchNormalizati (None, 32, 32, 256)  1024        res4b_branch2b[0][0]             
__________________________________________________________________________________________________
activation_27 (Activation)      (None, 32, 32, 256)  0           bn4b_branch2b[0][0]              
__________________________________________________________________________________________________
res4b_branch2c (Conv2D)         (None, 32, 32, 1024) 263168      activation_27[0][0]              
__________________________________________________________________________________________________
bn4b_branch2c (BatchNormalizati (None, 32, 32, 1024) 4096        res4b_branch2c[0][0]             
__________________________________________________________________________________________________
add_9 (Add)                     (None, 32, 32, 1024) 0           bn4b_branch2c[0][0]              
                                                                 activation_25[0][0]              
__________________________________________________________________________________________________
activation_28 (Activation)      (None, 32, 32, 1024) 0           add_9[0][0]                      
__________________________________________________________________________________________________
res4c_branch2a (Conv2D)         (None, 32, 32, 256)  262400      activation_28[0][0]              
__________________________________________________________________________________________________
bn4c_branch2a (BatchNormalizati (None, 32, 32, 256)  1024        res4c_branch2a[0][0]             
__________________________________________________________________________________________________
activation_29 (Activation)      (None, 32, 32, 256)  0           bn4c_branch2a[0][0]              
__________________________________________________________________________________________________
res4c_branch2b (Conv2D)         (None, 32, 32, 256)  590080      activation_29[0][0]              
__________________________________________________________________________________________________
bn4c_branch2b (BatchNormalizati (None, 32, 32, 256)  1024        res4c_branch2b[0][0]             
__________________________________________________________________________________________________
activation_30 (Activation)      (None, 32, 32, 256)  0           bn4c_branch2b[0][0]              
__________________________________________________________________________________________________
res4c_branch2c (Conv2D)         (None, 32, 32, 1024) 263168      activation_30[0][0]              
__________________________________________________________________________________________________
bn4c_branch2c (BatchNormalizati (None, 32, 32, 1024) 4096        res4c_branch2c[0][0]             
__________________________________________________________________________________________________
add_10 (Add)                    (None, 32, 32, 1024) 0           bn4c_branch2c[0][0]              
                                                                 activation_28[0][0]              
__________________________________________________________________________________________________
activation_31 (Activation)      (None, 32, 32, 1024) 0           add_10[0][0]                     
__________________________________________________________________________________________________
res4d_branch2a (Conv2D)         (None, 32, 32, 256)  262400      activation_31[0][0]              
__________________________________________________________________________________________________
bn4d_branch2a (BatchNormalizati (None, 32, 32, 256)  1024        res4d_branch2a[0][0]             
__________________________________________________________________________________________________
activation_32 (Activation)      (None, 32, 32, 256)  0           bn4d_branch2a[0][0]              
__________________________________________________________________________________________________
res4d_branch2b (Conv2D)         (None, 32, 32, 256)  590080      activation_32[0][0]              
__________________________________________________________________________________________________
bn4d_branch2b (BatchNormalizati (None, 32, 32, 256)  1024        res4d_branch2b[0][0]             
__________________________________________________________________________________________________
activation_33 (Activation)      (None, 32, 32, 256)  0           bn4d_branch2b[0][0]              
__________________________________________________________________________________________________
res4d_branch2c (Conv2D)         (None, 32, 32, 1024) 263168      activation_33[0][0]              
__________________________________________________________________________________________________
bn4d_branch2c (BatchNormalizati (None, 32, 32, 1024) 4096        res4d_branch2c[0][0]             
__________________________________________________________________________________________________
add_11 (Add)                    (None, 32, 32, 1024) 0           bn4d_branch2c[0][0]              
                                                                 activation_31[0][0]              
__________________________________________________________________________________________________
activation_34 (Activation)      (None, 32, 32, 1024) 0           add_11[0][0]                     
__________________________________________________________________________________________________
res4e_branch2a (Conv2D)         (None, 32, 32, 256)  262400      activation_34[0][0]              
__________________________________________________________________________________________________
bn4e_branch2a (BatchNormalizati (None, 32, 32, 256)  1024        res4e_branch2a[0][0]             
__________________________________________________________________________________________________
activation_35 (Activation)      (None, 32, 32, 256)  0           bn4e_branch2a[0][0]              
__________________________________________________________________________________________________
res4e_branch2b (Conv2D)         (None, 32, 32, 256)  590080      activation_35[0][0]              
__________________________________________________________________________________________________
bn4e_branch2b (BatchNormalizati (None, 32, 32, 256)  1024        res4e_branch2b[0][0]             
__________________________________________________________________________________________________
activation_36 (Activation)      (None, 32, 32, 256)  0           bn4e_branch2b[0][0]              
__________________________________________________________________________________________________
res4e_branch2c (Conv2D)         (None, 32, 32, 1024) 263168      activation_36[0][0]              
__________________________________________________________________________________________________
bn4e_branch2c (BatchNormalizati (None, 32, 32, 1024) 4096        res4e_branch2c[0][0]             
__________________________________________________________________________________________________
add_12 (Add)                    (None, 32, 32, 1024) 0           bn4e_branch2c[0][0]              
                                                                 activation_34[0][0]              
__________________________________________________________________________________________________
activation_37 (Activation)      (None, 32, 32, 1024) 0           add_12[0][0]                     
__________________________________________________________________________________________________
res4f_branch2a (Conv2D)         (None, 32, 32, 256)  262400      activation_37[0][0]              
__________________________________________________________________________________________________
bn4f_branch2a (BatchNormalizati (None, 32, 32, 256)  1024        res4f_branch2a[0][0]             
__________________________________________________________________________________________________
activation_38 (Activation)      (None, 32, 32, 256)  0           bn4f_branch2a[0][0]              
__________________________________________________________________________________________________
res4f_branch2b (Conv2D)         (None, 32, 32, 256)  590080      activation_38[0][0]              
__________________________________________________________________________________________________
bn4f_branch2b (BatchNormalizati (None, 32, 32, 256)  1024        res4f_branch2b[0][0]             
__________________________________________________________________________________________________
activation_39 (Activation)      (None, 32, 32, 256)  0           bn4f_branch2b[0][0]              
__________________________________________________________________________________________________
res4f_branch2c (Conv2D)         (None, 32, 32, 1024) 263168      activation_39[0][0]              
__________________________________________________________________________________________________
bn4f_branch2c (BatchNormalizati (None, 32, 32, 1024) 4096        res4f_branch2c[0][0]             
__________________________________________________________________________________________________
add_13 (Add)                    (None, 32, 32, 1024) 0           bn4f_branch2c[0][0]              
                                                                 activation_37[0][0]              
__________________________________________________________________________________________________
activation_40 (Activation)      (None, 32, 32, 1024) 0           add_13[0][0]                     
__________________________________________________________________________________________________
res5a_branch2a (Conv2D)         (None, 32, 32, 512)  524800      activation_40[0][0]              
__________________________________________________________________________________________________
bn5a_branch2a (BatchNormalizati (None, 32, 32, 512)  2048        res5a_branch2a[0][0]             
__________________________________________________________________________________________________
activation_50 (Activation)      (None, 32, 32, 512)  0           bn5a_branch2a[0][0]              
__________________________________________________________________________________________________
res5a_branch2b (Conv2D)         (None, 32, 32, 512)  2359808     activation_50[0][0]              
__________________________________________________________________________________________________
bn5a_branch2b (BatchNormalizati (None, 32, 32, 512)  2048        res5a_branch2b[0][0]             
__________________________________________________________________________________________________
activation_51 (Activation)      (None, 32, 32, 512)  0           bn5a_branch2b[0][0]              
__________________________________________________________________________________________________
res5a_branch2c (Conv2D)         (None, 32, 32, 2048) 1050624     activation_51[0][0]              
__________________________________________________________________________________________________
res5a_branch1 (Conv2D)          (None, 32, 32, 2048) 2099200     activation_40[0][0]              
__________________________________________________________________________________________________
bn5a_branch2c (BatchNormalizati (None, 32, 32, 2048) 8192        res5a_branch2c[0][0]             
__________________________________________________________________________________________________
bn5a_branch1 (BatchNormalizatio (None, 32, 32, 2048) 8192        res5a_branch1[0][0]              
__________________________________________________________________________________________________
add_17 (Add)                    (None, 32, 32, 2048) 0           bn5a_branch2c[0][0]              
                                                                 bn5a_branch1[0][0]               
__________________________________________________________________________________________________
activation_52 (Activation)      (None, 32, 32, 2048) 0           add_17[0][0]                     
__________________________________________________________________________________________________
res5b_branch2a (Conv2D)         (None, 32, 32, 512)  1049088     activation_52[0][0]              
__________________________________________________________________________________________________
bn5b_branch2a (BatchNormalizati (None, 32, 32, 512)  2048        res5b_branch2a[0][0]             
__________________________________________________________________________________________________
activation_53 (Activation)      (None, 32, 32, 512)  0           bn5b_branch2a[0][0]              
__________________________________________________________________________________________________
res5b_branch2b (Conv2D)         (None, 32, 32, 512)  2359808     activation_53[0][0]              
__________________________________________________________________________________________________
bn5b_branch2b (BatchNormalizati (None, 32, 32, 512)  2048        res5b_branch2b[0][0]             
__________________________________________________________________________________________________
activation_54 (Activation)      (None, 32, 32, 512)  0           bn5b_branch2b[0][0]              
__________________________________________________________________________________________________
res5b_branch2c (Conv2D)         (None, 32, 32, 2048) 1050624     activation_54[0][0]              
__________________________________________________________________________________________________
bn5b_branch2c (BatchNormalizati (None, 32, 32, 2048) 8192        res5b_branch2c[0][0]             
__________________________________________________________________________________________________
add_18 (Add)                    (None, 32, 32, 2048) 0           bn5b_branch2c[0][0]              
                                                                 activation_52[0][0]              
__________________________________________________________________________________________________
activation_55 (Activation)      (None, 32, 32, 2048) 0           add_18[0][0]                     
__________________________________________________________________________________________________
res5c_branch2a (Conv2D)         (None, 32, 32, 512)  1049088     activation_55[0][0]              
__________________________________________________________________________________________________
bn5c_branch2a (BatchNormalizati (None, 32, 32, 512)  2048        res5c_branch2a[0][0]             
__________________________________________________________________________________________________
activation_56 (Activation)      (None, 32, 32, 512)  0           bn5c_branch2a[0][0]              
__________________________________________________________________________________________________
res5c_branch2b (Conv2D)         (None, 32, 32, 512)  2359808     activation_56[0][0]              
__________________________________________________________________________________________________
bn5c_branch2b (BatchNormalizati (None, 32, 32, 512)  2048        res5c_branch2b[0][0]             
__________________________________________________________________________________________________
activation_57 (Activation)      (None, 32, 32, 512)  0           bn5c_branch2b[0][0]              
__________________________________________________________________________________________________
res5c_branch2c (Conv2D)         (None, 32, 32, 2048) 1050624     activation_57[0][0]              
__________________________________________________________________________________________________
bn5c_branch2c (BatchNormalizati (None, 32, 32, 2048) 8192        res5c_branch2c[0][0]             
__________________________________________________________________________________________________
add_19 (Add)                    (None, 32, 32, 2048) 0           bn5c_branch2c[0][0]              
                                                                 activation_55[0][0]              
__________________________________________________________________________________________________
activation_58 (Activation)      (None, 32, 32, 2048) 0           add_19[0][0]                     
__________________________________________________________________________________________________
con2D_1 (Conv2D)                (None, 32, 32, 1024) 2098176     activation_58[0][0]              
__________________________________________________________________________________________________
batch_normalization_1 (BatchNor (None, 32, 32, 1024) 4096        con2D_1[0][0]                    
__________________________________________________________________________________________________
conv2d_transpose_1 (Conv2DTrans (None, 64, 64, 512)  524800      batch_normalization_1[0][0]      
__________________________________________________________________________________________________
con5_main_1 (Conv2D)            (None, 64, 64, 512)  6554112     conv2d_transpose_1[0][0]         
__________________________________________________________________________________________________
activation_59 (Activation)      (None, 64, 64, 512)  0           con5_main_1[0][0]                
__________________________________________________________________________________________________
con3_main_1 (Conv2D)            (None, 64, 64, 512)  2359808     activation_59[0][0]              
__________________________________________________________________________________________________
con5_proj_1 (Conv2D)            (None, 64, 64, 512)  6554112     conv2d_transpose_1[0][0]         
__________________________________________________________________________________________________
concatenate_1 (Concatenate)     (None, 64, 64, 1024) 0           con3_main_1[0][0]                
                                                                 con5_proj_1[0][0]                
__________________________________________________________________________________________________
activation_60 (Activation)      (None, 64, 64, 1024) 0           concatenate_1[0][0]              
__________________________________________________________________________________________________
conv2d_transpose_2 (Conv2DTrans (None, 128, 128, 256 262400      activation_60[0][0]              
__________________________________________________________________________________________________
con5_main_2 (Conv2D)            (None, 128, 128, 256 1638656     conv2d_transpose_2[0][0]         
…
FCRN.py:288: UserWarning: Update your `fit_generator` call to the Keras 2 API: `fit_generator(<generator..., validation_data=<generator..., steps_per_epoch=347.0, epochs=100, callbacks=[<keras.ca..., validation_steps=347.0)`
  callbacks=[tensorboard,lrate],validation_data=val_batches,validation_steps=math.ceil(val_num/Val_batch_size))#lrate,
________________________________________
activation_64 (Activation)      (None, 256, 256, 256 0           concatenate_3[0][0]              
__________________________________________________________________________________________________
conv2d_transpose_4 (Conv2DTrans (None, 512, 512, 64) 16448       activation_64[0][0]              
__________________________________________________________________________________________________
con5_main_4 (Conv2D)            (None, 512, 512, 64) 102464      conv2d_transpose_4[0][0]         
__________________________________________________________________________________________________
activation_65 (Activation)      (None, 512, 512, 64) 0           con5_main_4[0][0]                
__________________________________________________________________________________________________
con3_main_4 (Conv2D)            (None, 512, 512, 64) 36928       activation_65[0][0]              
__________________________________________________________________________________________________
con5_proj_4 (Conv2D)            (None, 512, 512, 64) 102464      conv2d_transpose_4[0][0]         
__________________________________________________________________________________________________
concatenate_4 (Concatenate)     (None, 512, 512, 128 0           con3_main_4[0][0]                
                                                                 con5_proj_4[0][0]                
__________________________________________________________________________________________________
activation_66 (Activation)      (None, 512, 512, 128 0           concatenate_4[0][0]              
__________________________________________________________________________________________________
con2D_last (Conv2D)             (None, 512, 512, 1)  1153        activation_66[0][0]              
==================================================================================================
Total params: 47,104,769
Trainable params: 47,049,601
Non-trainable params: 55,168
__________________________________________________________________________________________________
Epoch 1/100
The length of inputs is 1388

  1/347 [..............................] - ETA: 55:35 - loss: 0.0340 - acc: 0.0000e+00
…
